fashion_mnist.pth (torch_old, 972332 bytes, 8 tensors)

0.weight f4 [256, 784]
000000 88 f4 9b 3d 84 4e 63 3d fe a8 70 3d d5 f8 65 3d
       0.07615 0.0554948 0.058754914 0.056145508
000010 05 84 54 3d 2a 98 fa 3c 06 b2 46 3d 8b 79 ca 3d
       0.051883716 0.030590136 0.04850962 0.09886464
000020 51 b9 cb 3d d5 bd fa 3d 88 5b a7 3e 96 ba b3 3e
       0.09947456 0.12243239 0.3268702 0.3510329
000030 c3 34 1c 3e 20 1f 6b 3e d3 4c 58 3e 0c c9 7f 3d
       0.15254502 0.22961092 0.21123056 0.062447593
000040 2f 2c 78 3e 85 d7 a7 3e 03 f2 2d 3e 31 c2 31 3e
       0.24235605 0.32781616 0.16986851 0.17359234
000050 f7 25 af 3d 0d dd d4 3d 91 58 b4 3d c0 f6 14 3d
       0.08552163 0.103937246 0.08805955 0.03636813
000060 16 f0 e0 3b ef b0 39 3d 89 74 95 3d dd 8f 1f 3d
       0.006864558 0.045334753 0.07297618 0.038955558
000070 55 69 59 3d 76 d7 80 3d a0 23 4c 3d f8 37 b3 3c
       0.053078968 0.06291096 0.049838662 0.021877274
000080 90 29 49 3d 6a 31 bb 3b 4d 65 6b 3d 0f 3d 17 3d
       0.049111903 0.0057126777 0.057469655 0.036923464
000090 6d c8 9e 3d 87 ae 03 3e 14 c9 72 3e 1b e6 fe 3d
       0.07753072 0.12859546 0.23709518 0.12446233
0000a0 4f b8 c5 bd 6f b4 aa bd 10 72 1c bd 49 a7 46 be
       -0.09654295 -0.08335196 -0.038194716 -0.19399752
0000b0 23 74 79 3d f7 d9 74 3e b4 0a 26 3e 8b e0 d4 3d
       0.060901772 0.23911272 0.1621502 0.10394391
0000c0 60 60 f6 3c 71 c3 7c 3c f0 5b 3b 3c bd b2 95 3a
       0.030075252 0.015427456 0.011435494 0.0011421066
0000d0 77 9b 4c 3b 80 69 e3 3c 26 d7 4b 3d af b8 06 3d
       0.0031220594 0.027760267 0.04976573 0.03289097
0000e0 30 84 d0 3c 92 84 6e 3c 51 f9 8e 3d 64 e6 7e 3d
       0.025453657 0.014557974 0.06981147 0.062231436
0000f0 a1 50 1d 3c 4e 14 2b bb 35 74 55 3d 4d 31 5d bd
       0.009601743 -0.0026104632 0.052112777 -0.054002095
000100 bb ea f7 bd 90 eb a4 bd d6 06 b0 bc c5 ef b5 3d
       -0.12105318 -0.080527425 -0.021487635 0.08883623
000110 1d 83 a3 3d 60 76 22 be 5c 82 0b be de ee 41 bd
       0.07983992 -0.15865469 -0.13623947 -0.047346942
000120 61 50 33 bd 64 2e ca bc f5 72 29 bd 5b fa 9a bd
       -0.043777827 -0.024680324 -0.041369397 -0.07567283
000130 be 4c 0a bd 02 2b 06 3c 7c 30 07 3c 77 97 2e bb
       -0.033764593 0.008188965 0.008251306 -0.0026640573
000140 ce 8a 15 3d c0 c3 9a 3c 50 f9 37 3d 1f 86 c2 3c
       0.036509328 0.018892169 0.044915497 0.023745595
000150 b1 6f a0 3d cf 92 1a 3d 13 32 28 3d 47 32 88 3d
       0.078338034 0.037737664 0.04106338 0.06650215
000160 03 af dd 3c a9 f1 08 3c 0c 44 a0 bc f3 13 25 be
       0.027060991 0.0083583975 -0.019563697 -0.16120891
000170 4a f0 07 be d4 12 9f bd fa d6 76 3d 82 1b 34 3e
       -0.13275257 -0.07767263 0.06026361 0.17588618
000180 b0 94 46 3d f6 a7 bc 3c 74 d7 de 3d fe b2 61 bd
       0.048481643 0.023029309 0.10880938 -0.05510234
000190 82 22 29 bd b7 55 9b 3d b0 8e 4e 3d ee 4b dd bc
       -0.041292675 0.07584708 0.050429046 -0.027013745
0001a0 25 f7 af bd c6 a7 6d bc a5 36 1f 3c be e9 43 3c
       -0.08592061 -0.014505332 0.009717618 0.011957584
0001b0 a1 27 15 3d 22 6c 35 3d 18 63 ab 3b 89 5c 27 3d
       0.036414746 0.044292577 0.0052303188 0.040859733
0001c0 9a 79 8d 3d 1c 9d 7d 3d 1d 6c 56 3d 6d 83 ea bb
       0.06907959 0.06191741 0.0523492 -0.0071567805
0001d0 81 97 02 bd 04 2c a2 3c eb 0a 18 bd 4e 81 b4 bd
       -0.031882767 0.019796379 -0.037119787 -0.088137254
0001e0 fc 5d 23 be d8 72 29 bc 39 8f f1 3c f4 69 c4 3c
       -0.15953821 -0.010342322 0.02948724 0.023976304
0001f0 0c 87 e0 bd 60 cb c2 bd c9 7b 9d bc e2 38 ef bd
       -0.10963258 -0.09511447 -0.019224064 -0.116807714
000200 4b 4f b2 bd 7a 13 9f 39 77 d3 01 bc ff af 39 bd
       -0.0870653 0.00030341354 -0.007923952 -0.04533386
000210 4d aa 78 bd b0 9f 97 bc 7f c3 08 bd 00 19 d7 3c
       -0.060709286 -0.018508762 -0.033389565 0.026257038
000220 32 42 b4 bc 07 1f e3 3b 3f a4 3b 3d 23 0d 38 3d
       -0.02200422 0.006931189 0.045810934 0.044934403
000230 1d 7d 7d 3c 7d d3 4b 3d ee 3c 1b bb 22 4e 82 bb
       0.015471724 0.049762238 -0.002368744 -0.0039765993
000240 1f 97 10 bc 01 de be 3c 69 15 e4 ba a0 5f 9b bd
       -0.008825093 0.02329922 -0.00174014 -0.075865984
000250 f9 ce 84 bd 26 26 4c 3c 2e 70 9d bd f9 ac 86 bd
       -0.064847894 0.012460267 -0.07687412 -0.06575961
000260 8d d0 25 bc f0 cd dc 3c 12 0c 07 3d 95 fd f7 bd
       -0.010120523 0.026953667 0.032970496 -0.12108914
000270 03 b4 aa bd 10 b2 d1 3c 85 d4 00 bd 5e d2 32 bc
       -0.08335116 0.025597602 -0.031452674 -0.010914413
000280 91 11 00 bc 1d 70 99 3d c2 07 6a bb ff 52 9d bc
       -0.007816688 0.07492087 -0.003571019 -0.019204615
000290 1e 86 e6 3b 5d 1e f4 3c e7 b3 9a bc 21 a6 1c 3c
       0.007035031 0.029799635 -0.018884612 0.009561093
0002a0 af 06 2b 3c 9e 2b 4e 3d a5 c3 e6 3c 08 c2 86 bd
       0.010438605 0.050334565 0.028169462 -0.06579977
0002b0 24 61 96 bd d2 ab 12 bc be b9 ae bc b1 ce 21 bd
       -0.07342747 -0.008952098 -0.021328803 -0.039503757
0002c0 b3 12 c3 bd ee 96 22 3a 7a 7f cc bd 58 f8 3e bd
       -0.09525051 0.00062023 -0.09985252 -0.046623558
0002d0 0f 0e b1 bd 22 81 21 3d 81 21 53 3d 27 50 9c bc
       -0.086452596 0.03942979 0.051545624 -0.019081188
0002e0 92 85 84 bd ce 97 00 3c 24 56 0d bd 0e ae 5c bd
       -0.06470789 0.007848693 -0.03450598 -0.05387693
0002f0 18 02 aa 3b 0b 18 2f 3c 47 7d 9b 3d 5d c9 b6 bc
       0.005188238 0.010686885 0.07592254 -0.022312814
000300 b6 58 1a bc 99 2a 20 ba aa 31 82 3c 7b 51 e2 3c
       -0.009420564 -0.0006109863 0.015892822 0.027626744
000310 1c f9 66 3d 60 27 c4 36 96 c1 ca bc e6 9a 46 bc
       0.056389913 5.845839e-06 -0.024750512 -0.012121892
000320 11 ea 7a bd 42 72 51 bc 73 30 05 bc 7c 48 7e bd
       -0.06125838 -0.012783589 -0.008129227 -0.062080845
000330 57 88 a6 bd 36 20 46 bc f3 01 93 bd 5b e9 1a bd
       -0.081314735 -0.012092641 -0.07178106 -0.0378202
000340 49 fc 80 bd 20 ef fd 3c 8c ed 49 3e ab 88 d1 3d
       -0.062981196 0.030997813 0.19719523 0.102311455
000350 89 7e be bd 85 53 35 bc c4 1e 4b bd b4 27 72 bd
       -0.093014784 -0.011067276 -0.049589887 -0.059119895
000360 43 99 8c bc 2e a2 d7 3b 75 2c 16 3d a3 02 9e bd
       -0.017162925 0.0065806126 0.03666349 -0.07715347
000370 27 8e ab 3c 2e 17 01 bd 56 e4 51 bc d4 7e 80 bc
       0.020941807 -0.031516246 -0.012810787 -0.015685476
000380 29 ca fd 3c 68 da 43 bd fb 67 72 3b ff c8 cb bc
       0.030980187 -0.04781571 0.0036988247 -0.024876116
000390 f3 ea 35 bd be be 33 bd b0 79 57 bd 9d 47 84 bd
       -0.04441352 -0.043883078 -0.052606285 -0.06458972
0003a0 86 b8 ab bd 94 ea 03 3d f5 70 cc 3c 5f 51 7c 3a
       -0.083848044 0.032206133 0.024956206 0.00096251623
0003b0 46 2a c0 3d 0b d8 6a 3e db c2 80 3e 60 39 4e 3e
       0.09383063 0.22933976 0.25148663 0.20139074
0003c0 38 8d 1f bc 78 ad 29 3e f2 31 ff 3d 0f 48 a7 bd
       -0.009738259 0.1657008 0.12460698 -0.08168041
0003d0 95 f4 e8 bd 52 5c c3 bd 93 7c 50 3b 9b f1 b3 bd
       -0.11374775 -0.09539093 0.0031812533 -0.08786317
0003e0 7a 9e d2 3c 29 0b 49 3b eb 6d 57 bd 1d 22 94 3a
       0.025710333 0.0030676818 -0.05259506 0.001130167
0003f0 4d 34 1f 3d 26 ed 6b bd 92 d3 b5 bc 9b f5 b5 bd
       0.038868237 -0.05759921 -0.022195611 -0.08884736

0.bias f4 [256]
000000 f0 88 9e bd cf 25 18 bd d0 c8 ec 3c 32 24 42 bd
       -0.077409625 -0.037145432 0.028904349 -0.0473978
000010 7d e0 b4 bd 9b 88 3c bd 48 42 14 bc d9 0b 88 bd
       -0.0883188 -0.046028715 -0.009049006 -0.06642885
000020 57 a4 3c bd 24 e3 0e 3d ff 1b 41 bd 15 c4 f2 bc
       -0.046055164 0.034884587 -0.04714584 -0.029634515
000030 b2 17 09 bc aa 2b 28 bd 60 c7 0e bd 58 37 5a ba
       -0.008367466 -0.041057266 -0.034858108 -0.0008324287
000040 d9 84 67 3c cb 46 ac bc 43 76 51 bd 6f 74 f6 bc
       0.014130794 -0.02102985 -0.051138174 -0.030084817
000050 96 45 34 bd 57 48 5e bd 81 b1 7f bd 6f 03 2b bc
       -0.044011675 -0.054268207 -0.06242514 -0.01043783
000060 cb 4c 0a bd 67 c5 0a 3b eb d1 c5 bc 54 22 bc bc
       -0.03376464 0.002117479 -0.024147948 -0.022965588
000070 9f dd c8 bd f0 51 72 bd 28 7e 90 bc 24 10 78 bd
       -0.09807896 -0.059160173 -0.017638281 -0.060562268
000080 4d 0b 03 be 2b 67 76 bd f5 e3 d5 bb e2 f0 76 3c
       -0.1279728 -0.060156982 -0.0065274187 0.015072079
000090 f9 40 8a bd b0 35 1d bd 1a 97 b7 bd 76 38 4e bd
       -0.06750674 -0.03838128 -0.08964367 -0.050346814
0000a0 67 e1 0b be 9c 0f 90 bd 43 5f 75 3d fe 1b c1 bd
       -0.13660203 -0.07034227 0.0599053 -0.09429167
0000b0 f7 af d1 3c bd b7 10 bd 7b 24 07 3d e4 15 d8 bd
       0.025596602 -0.035331476 0.032993775 -0.1055105
0000c0 fc 86 7c bd 9e df 86 bd 9d b2 57 bd b6 f3 5b bd
       -0.06165217 -0.0658562 -0.052660573 -0.053699218
0000d0 be 00 9a bd e5 9b 1f bd 32 3e 0b bd 63 66 87 bd
       -0.07519673 -0.038967032 -0.03399486 -0.066113256
0000e0 4b 85 86 bd cb b9 09 bd 22 51 e2 bc 2b 55 4f bd
       -0.06568392 -0.03362445 -0.027626578 -0.050618332
0000f0 46 ac 8d bc c8 da b3 bd a9 ff 6d 3d 55 92 14 bd
       -0.01729406 -0.087819636 0.058105145 -0.036272366
000100 41 f8 37 bd f8 45 49 bd 38 73 25 bd a8 76 90 bd
       -0.044914488 -0.049138993 -0.040393084 -0.07053882
000110 58 fd a7 bc bf e5 b9 bb 99 cd 6c bd c6 30 45 bd
       -0.020506546 -0.00567314 -0.05781326 -0.048142217
000120 02 49 b6 bd cd f9 61 bd 17 6b 48 bc 65 14 42 bd
       -0.08900644 -0.05516987 -0.012232563 -0.04738273
000130 22 6d f1 bc ae d8 5e 3b d4 d4 fb 3b 3f 85 4c bc
       -0.029470984 0.0034003663 0.007685283 -0.01248294
000140 8b 8c 9d bd aa 2f 85 bd 06 0a 80 3c d6 e2 9a ba
       -0.07692822 -0.06503232 0.01562978 -0.001181687
000150 41 8a 9a bd 3d a6 36 bd 74 db f6 bc f5 ed 9a bd
       -0.07545901 -0.04459213 -0.03013394 -0.07564918
000160 e9 c8 a5 bd 22 b8 aa 3c cc cd 56 bd 3e 4b cd bc
       -0.08094961 0.020839754 -0.052442357 -0.025060292
000170 03 1e e5 bc c4 1d 2a bd cd d5 ac bc 98 b8 54 bd
       -0.027968412 -0.041532293 -0.021098042 -0.051933855
000180 9c 9b f3 3d b8 52 06 3c 1f 9b 7e bd 40 4e 9a 3c
       0.118949145 0.008198433 -0.062159654 0.01883614
000190 c3 c2 69 bc a1 c0 5a bd 58 8f 6c 3c 74 ee 4f bc
       -0.014267626 -0.05340636 0.014438473 -0.012691129
0001a0 c4 e0 1f 3c 42 5c 19 bc 75 9a 10 bd bb 7a 95 bd
       0.009758178 -0.009360375 -0.03530355 -0.072987996
0001b0 e4 4b cc bc 6f 06 cd bc e5 d7 04 bc ad 1d 26 3d
       -0.024938531 -0.025027482 -0.008108114 0.040555645
0001c0 81 e7 19 bd a9 e8 b8 3d b4 27 e5 bc fd 1a fc bd
       -0.037574295 0.090287514 -0.027973033 -0.12309835
0001d0 97 c6 69 bd 63 21 50 bc 3a f5 91 bd 85 e6 36 bc
       -0.057074156 -0.0127032725 -0.071268514 -0.011163359
0001e0 4e 3a 82 bd 50 66 b0 bd d7 f5 50 3d 76 99 b5 bd
       -0.06358777 -0.086132646 0.0510157 -0.08867161
0001f0 65 cd 24 3b 53 b4 87 bd a4 b6 ec bc 65 73 01 bd
       0.0025146839 -0.06626191 -0.028895684 -0.03160419
000200 32 26 ef bc f4 01 88 bc 54 51 04 bc f2 cc 4c bd
       -0.029193018 -0.016602494 -0.008076031 -0.05000014
000210 d7 c6 a3 bd 49 dc 20 bc b7 d8 0e 3c c8 ee 69 bc
       -0.0799691 -0.009818145 0.008718661 -0.014278121
000220 a3 10 75 bd 14 20 5a 3c 48 7a ac bc de 09 2c bd
       -0.05983032 0.013313312 -0.021054402 -0.042001598
000230 7a 75 d8 3c 9b 7c 86 bd 24 84 61 bd 72 e6 52 bd
       0.026423205 -0.06566735 -0.05505766 -0.0514893
000240 2d 3e 6b bd a4 d2 ab bc d9 56 3b bd 26 c4 c4 bc
       -0.057432342 -0.020974465 -0.04573712 -0.024019312
000250 97 07 e1 bd 8c 37 a6 bc 24 85 66 bc af c8 20 bd
       -0.10987776 -0.020290159 -0.014069829 -0.039253887
000260 7f c2 dd bd d5 75 01 bd fe f2 5b 3c 02 4e 3a bd
       -0.10828113 -0.031606514 0.013424633 -0.04548455
000270 78 94 e1 bc 98 f2 29 bd de 77 cf bc da 65 c4 bb
       -0.027536616 -0.04149112 -0.025325712 -0.005993587
000280 36 5a 79 bd fd 26 57 bd 90 3d e3 bd 1e 0c 18 3d
       -0.060877047 -0.052527416 -0.110957265 0.03712093
000290 a5 97 ee bc df cf 51 bd 9b e4 cb bc 3f 53 23 bd
       -0.029125044 -0.051223632 -0.024889281 -0.03987431
0002a0 c4 63 6a 3c 8e 69 b5 bb 12 80 c9 bc b0 e0 a9 bc
       0.014306013 -0.0055362647 -0.024597201 -0.020737022
0002b0 18 56 91 3d a9 60 8a bd 98 e2 12 bd 6c 1d 7a bd
       0.07096499 -0.06756718 -0.035860628 -0.061063215
0002c0 28 5c 91 3d 25 ef 97 bc 86 3f ca 3a 7f 1d e5 bc
       0.070976555 -0.01854665 0.0015430308 -0.027968166
0002d0 c0 fa 06 bd dd 54 81 bb 75 da b1 bd 2e 62 5e bd
       -0.032953978 -0.003946884 -0.086842455 -0.05429285
0002e0 65 22 03 be e7 d2 77 bd 41 06 2b bd e1 30 2b bd
       -0.12806089 -0.060503867 -0.04175401 -0.04179466
0002f0 71 cb 68 3c 56 88 db bc 22 c2 61 bd 8c 3c 07 3b
       0.01420866 -0.026798408 -0.05511678 0.0020635454
000300 b5 20 cc bc 4e 4a 41 bc 41 4e 0b bd e1 ec 8a 3c
       -0.02491794 -0.011797501 -0.034010176 0.016958656
000310 f1 7f 94 bc 72 15 ff bb 2d a6 6d bd 75 19 22 3c
       -0.018127413 -0.007784539 -0.058019806 0.009893765
000320 73 fd 39 bd 0f 4f c6 bc 37 b9 26 ba 50 ef ed bc
       -0.045407724 -0.02420762 -0.00063599966 -0.029044777
000330 58 2e b0 bb be 74 c2 bc 7f b8 a9 bd 1d b1 4f bd
       -0.0053766184 -0.023737308 -0.08287143 -0.050706018
000340 12 6b 97 3b b5 01 e7 bc ed f9 39 bc 10 c7 88 bd
       0.004620918 -0.028199056 -0.011351091 -0.06678593
000350 06 0f 9d bd 59 61 e2 bc 88 aa ac bd f8 12 b7 bd
       -0.07668881 -0.02763431 -0.08430964 -0.08939165
000360 ea 10 49 bc eb 05 7b bc 16 ed da ba 4f 8c a5 bc
       -0.012272099 -0.015321235 -0.0016702737 -0.020208506
000370 f0 d3 00 bd c7 8e 61 bd e2 37 8a bd bc 7d 8b bd
       -0.03145212 -0.055067804 -0.0674894 -0.06811091
000380 bf a2 1f bd 0b 35 0b 3d f4 5a f5 bb 9a c3 5e bd
       -0.038973566 0.033986133 -0.007487649 -0.05438576
000390 56 04 13 bd 39 87 8b bc 9c 39 83 bc 0d 75 a5 bc
       -0.035892807 -0.017032253 -0.016018681 -0.020197416
0003a0 98 8c 3e bd 05 7b 9b 3a 18 1e 90 bd 9b 74 79 3c
       -0.0465208 0.0011862224 -0.0703699 0.015225555
0003b0 ee 30 28 bd cc 1a cc 3c e7 9a df bc e3 f6 0b bd
       -0.041062288 0.024915121 -0.027295543 -0.034170996
0003c0 99 10 a6 bb c8 42 84 3c 40 04 13 3d 2e 4d d6 3b
       -0.0050678966 0.016145125 0.035892725 0.0065399623
0003d0 8d f6 7a bd 34 eb 0b bd b0 48 30 3d 13 93 a3 bd
       -0.061270285 -0.034159854 0.04303807 -0.079870366
0003e0 13 95 db bd a9 e7 49 bd 81 b8 c3 bd c5 a4 3a bd
       -0.10721793 -0.049293194 -0.09556676 -0.045567293
0003f0 16 ad 36 bc 8b 9f ef bc f7 2c 88 bd f2 45 39 3c
       -0.011149665 -0.02925088 -0.06649201 0.01130818

3.weight f4 [128, 256]
000000 1d 8d ae bd 45 bd b4 3d 04 8f e7 3d 6b 50 60 3d
       -0.08523009 0.08825163 0.11306575 0.054764193
000010 0d 29 3d bd b0 d6 86 bb 5d 5b 63 bd 59 7c 3a bd
       -0.046181727 -0.004114948 -0.055507053 -0.045528743
000020 32 e0 c7 bd 87 be 34 3d 3a 59 b5 bd 58 ec 12 3d
       -0.09759559 0.044127014 -0.08854909 0.035869926
000030 ea d3 88 3d df ca 6b be 7a 1a a2 3d 13 1c 0e 3d
       0.066810444 -0.23026608 0.07915206 0.034694742
000040 17 5c bf bd 75 dd 94 bd 30 e3 48 3d 25 eb cb bd
       -0.093437366 -0.07268802 0.049044788 -0.0995696
000050 a5 fb 37 bd 12 6c f1 bd 4c 76 64 3d 28 4b 26 3d
       -0.04491772 -0.11788191 0.05577688 0.04059902
000060 93 cf 41 bd 43 8a b2 bc d0 8a 1c 3c 91 c4 ca bb
       -0.0473171 -0.021794444 0.00955458 -0.0061879833
000070 25 74 12 3d 24 4f 12 bd 18 77 9b 3c 04 79 81 bd
       0.035755295 -0.035720006 0.018977687 -0.0632191
000080 86 23 ee 3d ff d8 98 3d 2f 25 0a 3e 0e ee 95 bd
       0.11627869 0.07463264 0.13490747 -0.07320796
000090 7a 83 cb 3d a5 09 d5 bc 2c 18 ed 3c 17 81 04 bc
       0.099371865 -0.026005575 0.02894219 -0.008087418
0000a0 48 b4 05 bd b1 20 34 3d a6 d2 97 3d 93 84 2b bc
       -0.032642633 0.04397649 0.07413225 -0.01046862
0000b0 e3 96 5c bc e5 73 ed 3d bc 54 1a 3d 37 81 d7 bd
       -0.013463709 0.11594371 0.037678465 -0.10522693
0000c0 39 ed 81 bd e8 32 65 bc fa 0a e7 3c 3b 90 00 3d
       -0.06344075 -0.013989188 0.028203476 0.03138755
0000d0 74 20 a6 bd 7a 09 55 3d f9 ce e5 3c 98 91 26 bd
       -0.08111659 0.05201099 0.028052794 -0.040666193
0000e0 da 52 3c bd 5b be 27 bd 73 5d c7 bd be a9 93 3d
       -0.04597745 -0.04095302 -0.09734621 0.0721011
0000f0 ed 32 95 bd c1 57 df bd 05 f0 dd bd cb f3 ab 3b
       -0.07285104 -0.109054096 -0.10836796 0.0052475682
000100 7c 08 60 bd 94 93 e5 bd 68 c5 ec 3d 87 06 9b 3d
       -0.05469559 -0.11209789 0.1156109 0.07569604
000110 07 88 8a bb 3f d9 2c be 44 90 3d bd 66 1c 1a 3b
       -0.0042276415 -0.16879748 -0.04628016 0.0023515462
000120 82 56 83 bd 9e 54 df 3c e7 f8 0c 3d 42 7a 90 3d
       -0.064129844 0.027262028 0.03441706 0.07054569
000130 98 c4 9b 3c df b5 36 bd 44 7c df 3d 00 e9 18 be
       0.019014642 -0.04460704 0.10912374 -0.14932632
000140 8c 1c 82 3d 4d 19 04 3e a5 6f 27 bc f5 e5 0c 3d
       0.06353101 0.12900276 -0.010219489 0.03439899
000150 49 c1 06 3e 12 50 45 bc 50 51 a4 3c 84 fd 22 3c
       0.1315967 -0.012043016 0.020058304 0.009948138
000160 70 62 13 3e 1e 05 8a be 23 92 fe 3c 2a 15 c0 3d
       0.1439302 -0.2695703 0.031075543 0.09379037
000170 23 71 9a 3d 17 97 f0 bd 72 31 41 3e 40 e7 8a 3c
       0.0754111 -0.11747568 0.18866518 0.016955972
000180 c3 7a c6 bd a8 ad 02 3e 2d 25 0f bc 5d 7f 87 3c
       -0.09691384 0.12761557 -0.008736891 0.016540224
000190 5f 78 92 3d 3f bb 87 3d c1 c5 05 bd fa 5b 32 bd
       0.07151865 0.06627511 -0.032659296 -0.043544747
0001a0 94 1e 3d bd 66 98 76 3c 1b bc aa bc 0b 25 80 3c
       -0.04617174 0.015050983 -0.020841649 0.015642663
0001b0 37 68 34 be 47 68 84 3d b5 93 9e bd f7 9a 43 be
       -0.1761788 0.06465202 -0.07743017 -0.19102083
0001c0 c6 c5 5f 3e 82 18 df bd d9 7f 7e 3d 71 8a e1 bc
       0.21852788 -0.10893346 0.062133644 -0.027531834
0001d0 59 b6 95 3d 5c 84 d2 3c 58 e9 b1 bd af cc a5 bc
       0.07310171 0.02569788 -0.08687085 -0.020239202
0001e0 99 93 9f bc 67 04 49 bb 39 65 c3 3d 23 15 a3 bd
       -0.01947956 -0.003067279 0.09540791 -0.07963016
0001f0 38 17 49 be 9b 30 b5 3c c0 ef 9d bd 50 88 c9 bd
       -0.19637764 0.022117903 -0.07711744 -0.09840453
000200 d7 29 d6 3c 7d d4 8d bd 8f c6 ee bc c6 a5 18 be
       0.026142998 -0.069252945 -0.029147414 -0.14906988
000210 e9 11 87 be 62 47 d9 bd 69 b2 e1 3d 09 80 be 3c
       -0.26380852 -0.10609318 0.11020357 0.023254411
000220 43 1d d4 bd ca af 09 3e f9 24 38 3e e2 3d c9 bc
       -0.10357144 0.13445964 0.17982854 -0.02456564
000230 ba f6 a9 3c 0e 4e c4 bc 6a a3 24 be 63 20 bc bd
       0.020747531 -0.023963 -0.16077963 -0.09185865
000240 fe bf f9 bc 4e 92 d5 3c 5d 95 57 bc 00 af 44 bc
       -0.030487057 0.02607074 -0.01315817 -0.012004614
000250 d3 f3 23 bd 0a da b0 3c f4 a6 02 be 4f d6 4f be
       -0.04002745 0.021588344 -0.12759 -0.20296596
000260 8e 6b c5 3c 13 78 0b be cf 4f 10 be 2b 35 26 3d
       0.024099138 -0.13620023 -0.14092945 0.04057805
000270 ee 96 7f 3d e8 81 06 be 83 62 64 bd b4 9b a5 bc
       0.062399797 -0.13135493 -0.05575801 -0.020215847
000280 8d b9 da bc f6 19 1c be 4f cc 38 3d ea a6 90 bd
       -0.026699806 -0.15244278 0.04511672 -0.07063086
000290 c8 23 40 3c 16 e6 08 3e 50 2e 81 be d1 af 9b 3d
       0.011727281 0.13369021 -0.25230646 0.07601894
0002a0 d7 4c ac bd c1 ab 82 bc 20 b7 db 3b b8 83 12 3e
       -0.084130935 -0.01595104 0.00670518 0.14308059
0002b0 b5 63 dc 3d b4 03 a8 bd d1 b4 3b bd 9f 33 33 bd
       0.10761205 -0.08203831 -0.045826737 -0.0437504
0002c0 4d 8f 89 3d bd 09 1c bd 77 bb f1 bc 32 e1 de bd
       0.067167856 -0.038095225 -0.029508336 -0.10882796
0002d0 73 c0 44 bd e6 f4 c2 bd 2e 78 f4 3b 14 09 ac 3d
       -0.048035096 -0.09519367 0.0074606156 0.08400169
0002e0 b4 7b 91 3d f4 57 79 3d a9 37 8b 3d c9 ae a2 bd
       0.071036726 0.060874894 0.06797726 -0.07943494
0002f0 8e 3b 88 bd 5a 9d b9 3d bc b8 7d 3d 2c 00 dd 3c
       -0.06651984 0.090632156 0.061943755 0.026977621
000300 fa f9 90 bd f5 5d 31 bd df f3 b4 3d cb b3 c8 bd
       -0.07078929 -0.043302495 0.08835577 -0.09799918
000310 08 25 f0 3c 04 23 bd bd d4 04 05 bc c8 ed 28 bd
       0.029314533 -0.09235194 -0.008118827 -0.04124239
000320 52 cb 89 3d ef 2c 0e 3d db 76 1b 3e af e4 b1 bd
       0.067282334 0.03471082 0.15182059 -0.08686196
000330 35 be 3d bc 1f f4 60 3c 84 d4 04 bc be 0e af 3d
       -0.011580993 0.013730078 -0.008107308 0.08547734
000340 a1 2b e2 ba 91 b0 1b be df e3 95 3d 70 d7 68 bd
       -0.0017255434 -0.15204073 0.073188536 -0.056846082
000350 06 f2 dd 3c 52 50 d6 bd 30 ed c4 bd ce cf f1 3c
       0.027092945 -0.10464539 -0.096155524 0.029518034
000360 1b 86 81 bd be b7 81 3d 06 c3 ee bc 1d 8d 20 3e
       -0.06324407 0.06333874 -0.029145729 0.1567883
000370 be 76 2d be 8e b5 be bd 9d 7d 6e bd ca 60 25 be
       -0.16939828 -0.093119726 -0.058225263 -0.16150203
000380 54 7d 6c bd eb 43 32 3d 6f 8c f4 bb e1 01 57 3c
       -0.05773671 0.043521803 -0.00746303 0.013123007
000390 4c 47 4c bd 4b 15 42 be 19 19 98 3d e1 72 c4 bd
       -0.04987268 -0.18953435 0.07426662 -0.09592224
0003a0 57 25 31 bd 69 ee 15 3d 70 7b c7 bd a7 cc 2e be
       -0.0432485 0.03660432 -0.09740341 -0.17070256
0003b0 48 0c 1a bc ab 21 09 3e 3c 4c b9 bd ff f7 81 3c
       -0.009402342 0.1339175 -0.09047744 0.015865324
0003c0 9e 91 49 bc 21 6a fc bd e9 6e 4a bd e8 4a 2c bd
       -0.012302784 -0.1232493 -0.04942218 -0.042063624
0003d0 c2 04 b5 bc ad 86 72 be cc 72 66 3d e7 bd 54 bd
       -0.022096995 -0.23684187 0.056261823 -0.051938917
0003e0 f0 4c 52 be 69 d7 6f bc d9 80 5b 3e d2 9c 21 bd
       -0.20537162 -0.01463876 0.2143587 -0.039456196
0003f0 17 b7 8c bd 4e bc 0f 3d 94 eb f4 bc f3 0f f5 bd
       -0.06870859 0.03509169 -0.029897489 -0.11965933

3.bias f4 [128]
000000 f9 a3 9e 3c d6 36 24 3e 2e 19 0b 3e da 99 9a bd
       0.019365298 0.16036543 0.13583824 -0.07548876
000010 ae 66 83 3b ce f0 48 3e dc 01 00 bd 31 ed 8c 3e
       0.004010043 0.1962311 -0.031251773 0.27524713
000020 1d 20 08 3e fd 09 fa bd a7 7c 2a bc 75 f7 38 3e
       0.132935 -0.12208936 -0.010405696 0.18063147
000030 d9 f3 0e 3e f0 9e da bd 6b e3 91 3d 37 43 77 3e
       0.13960208 -0.10674846 0.07123455 0.24146734
000040 58 df 27 3c 89 20 c9 bd 11 9a 12 3e b4 4c 02 be
       0.01024612 -0.09820659 0.14316584 -0.12724572
000050 05 29 d9 3d 4a d5 1c 3d 78 ca bf 3d d1 23 12 3d
       0.10603527 0.038289346 0.0936479 0.03567869
000060 6c 90 91 3e ea cb e7 3d 6a a3 78 3e 00 5a 40 bc
       0.28430498 0.113181904 0.24281088 -0.011740208
000070 66 2e 1c 3e 52 89 00 bd c1 36 c6 3d 62 2f d8 3d
       0.15252075 -0.03138096 0.09678412 0.105559126
000080 df 39 01 3e 65 fe 36 bc a9 50 75 bd bf aa 07 be
       0.12619732 -0.011169051 -0.059891377 -0.13248728
000090 98 18 30 3e f5 fa f0 3d b6 31 1a bb eb 02 95 3d
       0.17196882 0.11766616 -0.0023528165 0.07275947
0000a0 15 4a 69 bd c9 c4 98 bd 26 f1 73 bd f1 a4 bc 3c
       -0.056955416 -0.07459409 -0.05955615 0.023027869
0000b0 69 5c e3 bc 6f 5a af 3c bb 27 ef 3d bb 52 91 3b
       -0.027754026 0.021405427 0.116775 0.004434911
0000c0 52 db cf 3d 55 4a a2 bc 71 57 19 3e b3 41 74 bd
       0.10149254 -0.019810835 0.14974762 -0.05963297
0000d0 31 ca 1a 3e 22 ea ac 3c 33 a8 16 3e 94 90 13 bc
       0.15116192 0.021107737 0.147126 -0.009006638
0000e0 9d 61 35 3e e2 df 23 3e 45 45 4c 3e dc b9 00 bb
       0.17713018 0.16003373 0.19948299 -0.001964203
0000f0 4d 1f 7e 3d 4e ef 1a 3c 40 4b 93 3d 5e 72 9b 3d
       0.06204157 0.009456469 0.07192087 0.07590173
000100 d3 9c 0e 3e ae 77 80 3e 97 76 94 3e 64 79 33 3c
       0.13927011 0.25091308 0.28996727 0.010954235
000110 ea 81 5e 3d ac 21 23 bd 81 27 5f bd 88 83 bf bd
       0.054323114 -0.039827034 -0.054481033 -0.093512595
000120 1a de ea 3c c7 bd 3a 3d 5f 13 21 bd 25 29 3c 3e
       0.02867036 0.045591142 -0.039325114 0.1837507
000130 ca 68 73 3e a3 5c 5d 3e 09 9a 56 3e a6 f4 0a 3c
       0.23770443 0.2161737 0.20957197 0.00848118
000140 12 b8 79 3d df 80 b8 3d 95 18 b2 bb 34 7b c9 bd
       0.06096656 0.09008955 -0.0054350593 -0.09837952
000150 2d 14 2d bd 0e bf 14 3e 25 f1 d1 3d f1 84 9b 3e
       -0.04225557 0.14526007 0.10251073 0.30374864
000160 66 58 92 3e 97 19 30 bd 2a 1d ee 3c f5 c6 18 3e
       0.28583068 -0.042993154 0.02906664 0.14919646
000170 f8 46 ab bd 85 43 88 3e 64 98 bc bc 20 6f 38 bd
       -0.083631456 0.26614013 -0.023021884 -0.045027852
000180 a4 94 6c bd d1 86 f7 bd c5 44 9b 3d a3 4b 3f bd
       -0.057758942 -0.12086261 0.07581476 -0.046702992
000190 ff 25 a1 3d 77 44 19 be bd b4 a5 bd d1 35 74 3e
       0.07868575 -0.14967524 -0.08091114 0.23848654
0001a0 df 2b 4b 3c cf 31 02 3c 7f 7a c7 3d c1 72 1e bd
       0.012400596 0.007946446 0.09740161 -0.038683657
0001b0 d4 9d 2a 3d 66 22 78 bd 7b 09 2c 3d 3e a0 9f bd
       0.041654423 -0.06057968 0.04200123 -0.07794236
0001c0 a0 a6 32 bd 38 2d 76 3c 8e fc 2a 3e 79 86 33 bd
       -0.043615937 0.015025429 0.16697904 -0.043829415
0001d0 de b9 15 be 8b 6f 94 bb 66 aa 1a 3d c4 b3 44 3d
       -0.14621684 -0.0045298985 0.03776016 0.048023
0001e0 ab 7a 93 3d 35 e4 15 3e dd b1 31 3d a5 8f ba 3d
       0.072011314 0.14637835 0.043382514 0.09109429
0001f0 a7 8b 4c 3e e0 98 24 bd 55 3e 8f bd e5 98 73 3e
       0.19975148 -0.040184855 -0.06994311 0.23788793

6.weight f4 [64, 128]
000000 d4 62 83 be 2e 08 62 3d 89 a3 f5 bc cb 62 16 bd
       -0.25661337 0.055183582 -0.029985206 -0.03671531
000010 ff 60 d6 bd 99 ed 9a 3d 39 89 2e bb 55 25 65 3d
       -0.10467719 0.075648494 -0.0026632084 0.055943806
000020 44 90 15 3e 75 79 24 3e 98 fc a3 bd 87 5a 23 3e
       0.14605814 0.16061957 -0.08007163 0.15952502
000030 ea 01 79 3d 16 9c 30 bd 8a 87 84 bc e9 dc e7 3a
       0.06079284 -0.043117605 -0.016177911 0.0017689738
000040 17 cc 3f bd 24 74 25 3e 7d bd 0d 3c 00 85 c5 3c
       -0.046825495 0.16157585 0.008651135 0.02411127
000050 bd 26 53 be d4 60 27 be 48 f8 44 3d b5 3a 03 3b
       -0.20620246 -0.16345531 0.048088342 0.0020024006
000060 67 0b 0b bc db ea d0 3b e1 cc 8a bb 51 52 c7 bd
       -0.008486605 0.006375653 -0.0042358493 -0.097324975
000070 1b 79 49 bd 18 9f ef 3d e2 f8 61 bd e4 7a a0 3d
       -0.04918776 0.117002666 -0.055168994 0.078359395
000080 f3 84 f6 3d b2 ac e6 3d 8f 27 8d 3d 1e 70 6e 3c
       0.12037077 0.11263408 0.06892311 0.014553098
000090 2a 36 82 3d 3d 49 de 3c 81 25 b5 bd 9b 6a 24 3d
       0.06357987 0.027134532 -0.08845044 0.04014073
0000a0 4c d6 8c 3d 23 e9 a7 bc 1d 80 8a bd 7f 04 c9 3c
       0.068768114 -0.02049691 -0.06762717 0.024538277
0000b0 c3 92 52 3c 65 c5 30 bc dd 92 35 bc da bc 79 3d
       0.0128523735 -0.01078925 -0.011082378 0.06097112
0000c0 f1 df 30 3e 16 4b d3 bd 41 03 dc bd 41 7b 72 3d
       0.17272927 -0.10317056 -0.10742808 0.059199575
0000d0 85 86 ca 3d 7b 45 7f bd 7b 2d f9 3d ac b8 1d bc
       0.09888939 -0.06232212 0.12166878 -0.009626549
0000e0 1e d3 05 3e 3d e8 9b 3b 66 be c0 3d e3 b3 52 bd
       0.13068816 0.0047579096 0.094113156 -0.051441085
0000f0 c4 5b 08 be ff b3 08 bb 2a 90 80 bc c9 4b 02 be
       -0.13316256 -0.002085924 -0.015693743 -0.12724222
000100 f5 84 4f 3d d9 20 c8 3d c9 68 a5 bd 5d ba e6 3d
       0.050663907 0.0977189 -0.08076627 0.11266015
000110 ab 56 2f bd 33 1c 5a 3c af cd 5e 3e 54 4d 70 3d
       -0.042807262 0.013312387 0.2175815 0.058667496
000120 6d f3 06 be a1 3d 87 be 97 23 c3 bd 81 ea 19 bd
       -0.13178797 -0.26414207 -0.095282726 -0.037577156
000130 73 a5 d0 bd f4 4f 94 3c 54 31 11 3e 2e 19 1e be
       -0.10187807 0.01810453 0.14178973 -0.15439293
000140 1b 09 8d bc 7f 88 3f bd 77 3c f1 bd da 53 11 3b
       -0.017216256 -0.046761032 -0.11779111 0.0022175224
000150 90 18 ec bd 2d fc 61 be b0 82 8a bd fd 2c 87 bd
       -0.115281224 -0.22068854 -0.06763208 -0.06600378
000160 f8 2a de 3d 20 66 d3 3d f9 41 2a be 3d f6 25 3d
       0.108480394 0.10322213 -0.16626729 0.040518034
000170 f6 09 45 bd 61 da c1 3d 79 36 f0 bc b4 10 cd 3d
       -0.048105203 0.094654806 -0.02932285 0.100129515
000180 65 97 e4 3c b0 51 99 bd 43 d2 1c bd fb cb fd bd
       0.027904222 -0.07486284 -0.03828646 -0.12392422
000190 62 19 0c 3d eb 31 b1 3d ec 70 12 3e bc f1 61 3c
       0.034203894 0.08652099 0.14300889 0.013790544
0001a0 19 bf d9 bd 76 53 33 be 65 25 b5 bc 50 b3 34 be
       -0.10632152 -0.17512307 -0.022112558 -0.17646527
0001b0 bc bf e7 bd 83 7d 2f be f5 c9 05 be 50 ee 3a 3e
       -0.11315867 -0.17137723 -0.13065322 0.18254972
0001c0 3b 41 e9 bd 3b 4a fa 3c 80 71 5e bb 4e 88 6a bd
       -0.11389395 0.030552974 -0.0033942163 -0.057258897
0001d0 5e 56 0f 3c 9b 70 80 be 83 b6 33 be 04 63 09 3d
       0.008748619 -0.2508591 -0.17550091 0.033541694
0001e0 27 24 3e 3d 79 3d 83 bb 53 87 82 3d 4f 48 99 bd
       0.046421196 -0.004005131 0.06373467 -0.07484495
0001f0 93 67 81 3c 69 f5 40 3e 36 54 4f 3d b5 e1 c0 3d
       0.015796458 0.18843617 0.05061742 0.0941805
000200 5b e9 fe bd 58 fc 46 3d e8 84 14 be 31 ca c3 bd
       -0.12446853 0.048580498 -0.14503825 -0.09560049
000210 67 73 88 be 1d 21 db bb 16 47 8f be eb 70 97 bd
       -0.26650545 -0.006687297 -0.27983922 -0.07394584
000220 89 d9 00 be 19 3a 98 bd 6a 79 e6 bc f0 66 f1 3c
       -0.12582983 -0.07432956 -0.028134067 0.02946803
000230 18 26 ea 3d 61 b6 55 bc 11 dc 8c bd bb fa d0 bd
       0.11433047 -0.013043971 -0.06877912 -0.10204073
000240 e4 1c 7e bd 5c e8 06 3d ca 93 3a 3d e1 5b f8 3c
       -0.06203927 0.03293644 0.0455511 0.030317249
000250 9d ef 64 bd 7d 57 0d bd 2e 98 e0 bd 6a 22 a1 3d
       -0.055892576 -0.034507263 -0.10966526 0.07867892
000260 df 36 11 3e 93 42 1e be ea 0b 00 3c ed 62 04 3e
       0.14181088 -0.15455084 0.0078153405 0.12928362
000270 65 62 5a 3d f6 e1 1d 3d a9 5e ea 3c fc d2 9a 3c
       0.053316493 0.03854557 0.02860959 0.018899433
000280 ae a0 16 bd e4 26 74 3d c3 1a 95 bd ca 94 d7 bd
       -0.03677433 0.0596074 -0.07280495 -0.10526426
000290 b3 06 13 3d 8e 7b 69 3e ba 19 8d 3c 99 1e b7 bd
       0.03589506 0.22801039 0.017224181 -0.08941383
0002a0 13 71 79 3d 52 51 7b bc 9a 3d 5c be 25 fd 92 bd
       0.06089885 -0.0153392125 -0.21507874 -0.0717719
0002b0 df c3 0a be e1 40 5d bd 1f d9 b5 3d 40 b0 f9 3d
       -0.13551281 -0.05401695 0.08879303 0.1219182
0002c0 75 53 ad bc 59 c3 52 be a4 d6 b6 bd 62 57 89 bd
       -0.02115796 -0.20582332 -0.08927658 -0.0670612
0002d0 b1 b7 f1 3d 6d 3f 4a be 75 d1 2a 3d 53 6a 3e 3d
       0.118026145 -0.19750758 0.04170366 0.046488117
0002e0 2c 5b 19 3e d0 4a 2a bd 0f 8b 42 bd c2 a3 4b bd
       0.14976186 -0.041575253 -0.047495898 -0.04971672
0002f0 a0 7e d6 bc c0 00 59 be e0 2a 0c be 0e 49 11 be
       -0.026183426 -0.21191692 -0.1368823 -0.14188024
000300 7e 70 55 bc 72 91 f7 3d 5e 32 49 bd 27 64 da bd
       -0.0130273085 0.12088288 -0.0491203 -0.10663634
000310 a3 22 97 3d 4b 71 18 be de 12 b3 3d bd 1b 9f bc
       0.07379653 -0.14886968 0.08743833 -0.019422406
000320 94 c3 fd bd 88 86 c1 3d e0 49 e6 bc b6 67 e6 3d
       -0.12390819 0.09449488 -0.028111398 0.1125025
000330 23 b4 02 3e 4b fa 9c 3d 1d da 2e bc 20 5c 9c bd
       0.12764029 0.07664927 -0.010672119 -0.07634759
000340 46 84 c9 bb 7c 94 be 3d 52 3e 9b bd db 8e 4f bd
       -0.0061498014 0.09305665 -0.07580246 -0.050673347
000350 81 3b a7 3d 51 81 33 3d 89 d8 bc bd 4d 7c 49 3d
       0.08165646 0.043824498 -0.09220988 0.049190808
000360 ef bb 02 be 13 c0 17 bc ae 22 ca bd ca a1 dc 3a
       -0.12767003 -0.009262103 -0.09869896 0.0016832885
000370 85 1b 41 bc 8d 66 07 bd c3 8b d2 3b 00 16 8f bd
       -0.011786346 -0.033056784 0.0064253523 -0.06986618
000380 6d 9b 8c bd c4 ed a7 bc 15 70 35 bd e3 a8 99 bd
       -0.068655826 -0.020499118 -0.044296343 -0.07502916
000390 c3 8a 3d 3d 04 8c 79 bd c9 d3 35 be 01 38 5a 3d
       0.04627491 -0.060924545 -0.17756571 0.053276066
0003a0 76 26 b7 bc 4c 42 04 3e 79 a1 3a 3e d8 4c a8 bd
       -0.022357207 0.12915915 0.1822566 -0.08217782
0003b0 75 83 14 bd 29 61 10 3e 3d 1d d3 3c f6 1c 94 bc
       -0.03625818 0.14099564 0.025770778 -0.018080216
0003c0 ca 06 4b be a7 f9 c0 bd ea 2f ee bd 2b cc 3e bd
       -0.19826809 -0.094226174 -0.11630233 -0.04658143
0003d0 39 cb 4f bd 02 bd 3c be db 94 f8 bd d0 3e 48 3c
       -0.050730918 -0.18431476 -0.12137767 0.012222007
0003e0 6d 75 45 3d 53 45 0b be 8a b4 bf bd 35 cf 30 bd
       0.04820769 -0.13600664 -0.09360607 -0.043166358
0003f0 87 d3 0b be c2 fb b7 bd c5 57 34 bd f6 5a 1f 3d
       -0.1365491 -0.08983566 -0.044029016 0.038905106

6.bias f4 [64]
000000 35 cc 66 3e ee 74 8c 3e df a8 42 3e 93 1c 96 3e
       0.22538836 0.2743296 0.19009732 0.29318675
000010 45 1c 6e 3e b8 24 51 3e 78 a4 c6 3c 23 79 45 3e
       0.23252971 0.20424163 0.024248347 0.19284491
000020 6a b0 4f 3e 83 ea 6d 3e a6 a9 2f 3e ac cc c7 3e
       0.2028214 0.2323399 0.1715456 0.3902334
000030 98 cc 53 3e 03 3f c7 3e 8a 66 71 3e 52 24 8d 3e
       0.20683515 0.38915262 0.23574272 0.27566773
000040 26 f7 fb 3d 8d 00 90 3e 80 45 22 3e ed 99 29 3e
       0.12302999 0.2812542 0.15846825 0.16562624
000050 3f 7a 8f 3e 12 e2 91 3e 42 3a 95 3e 2f fa ad 3e
       0.28022954 0.2849279 0.2914601 0.33979937
000060 9a 17 54 bd 4e dc 11 3e 4f 27 69 3e 66 3f e0 3d
       -0.05178032 0.14244196 0.22768901 0.10949592
000070 df 8d 7d 3e 1f 71 0a 3e 7c 4b 29 be 75 be 52 3e
       0.24761151 0.13519715 -0.16532701 0.20580466
000080 b5 83 eb 3e 66 2a 82 3d 99 64 ea 3d d7 c8 8a 3e
       0.45998922 0.06355743 0.11444969 0.27106354
000090 84 de 4e 3d 9c aa 37 3e 95 0c 15 3e a1 f2 96 3e
       0.050505176 0.17936176 0.14555581 0.29481986
0000a0 d8 04 65 3e 36 5c 28 3e b4 28 d1 3c cf f5 5e 3e
       0.22365129 0.16441426 0.025532104 0.21773456
0000b0 a2 f8 06 3e 39 12 9d 3e 29 70 6d 3e 0c 4d 05 3e
       0.13180783 0.30677965 0.23187317 0.13017672
0000c0 24 6d 07 3e 90 4e aa 3e e0 64 4e 3e ff 40 a3 3e
       0.13225228 0.33263063 0.20155668 0.31885526
0000d0 07 9f 25 3e ec 6a 42 3d 33 2c 59 3e 2b 24 e8 3e
       0.16173945 0.04746525 0.21208267 0.45340094
0000e0 b4 c1 80 3e b2 3b 9d 3d f5 6f 0f 3c bd ae a4 3e
       0.25147784 0.076774016 0.00875472 0.32164565
0000f0 81 78 05 3e e3 ab 8f 3e 15 cf 54 3e 1b 02 1b be
       0.1303425 0.28060827 0.2078212 -0.15137522

9.weight f4 [10, 64]
000000 80 e8 35 be 94 56 9a be 6b 54 ba 3d 7e 2e 44 bd
       -0.17764473 -0.3014418 0.09098133 -0.0478959
000010 8c 99 c7 3d 11 fb 05 be 3e c3 bd bd 05 aa 87 3d
       0.097460836 -0.13084055 -0.09265755 0.066242255
000020 02 33 32 be 05 2b a9 bd 63 94 b4 bd 1b ce 0f be
       -0.1740227 -0.082601584 -0.08817365 -0.14043467
000030 40 6b 8a 3d 4a 8e f1 3b a2 56 19 ba be 12 5a 3d
       0.067587376 0.0073716985 -0.0005849396 0.05324053
000040 6f d5 05 bd 6b c5 ae bd 01 f4 b0 bd e3 11 83 3d
       -0.03267425 -0.08533748 -0.0864029 0.06399896
000050 1d 07 f0 bc f3 a4 f1 3d e0 79 f9 bd 31 e8 14 3b
       -0.029300267 0.1179904 -0.12181449 0.0022721405
000060 2f 41 34 be f8 61 b6 3d 87 a3 aa 3c 66 9e e3 3c
       -0.1760299 0.08905405 0.020829929 0.027785491
000070 31 c0 f6 3d cc 4d 8b 3d ec e3 b6 bd 44 c6 30 be
       0.12048376 0.06801948 -0.089301914 -0.17263132
000080 a5 67 b6 3c 27 79 15 be 78 41 a2 3d da a5 ac 3c
       0.022266218 -0.14596997 0.079226434 0.021075178
000090 ab 7b 76 be 8a 1c a5 bb fc 3b 85 3d ab 81 83 3d
       -0.24070613 -0.0050388025 0.06505582 0.064212166
0000a0 98 4a c6 3d 94 d8 c6 3d c2 24 f0 3c fd ab 9d 3d
       0.096821964 0.09709278 0.029314402 0.0769882
0000b0 5e 2f a3 bd 41 8e 1a be 6e e2 d1 bd 85 c2 92 bd
       -0.07968019 -0.15093328 -0.10248266 -0.07166008
0000c0 72 39 e3 ba ad 2d 9e 3d 07 3e 10 3d 17 0b e1 3d
       -0.0017335846 0.07723556 0.035215404 0.10988443
0000d0 0a 2f cf 3d c2 3e b3 bd 73 b0 9e be 78 32 d5 bd
       0.10116394 -0.087522045 -0.30993995 -0.10410017
0000e0 e8 37 60 3d d0 ee 3d be 53 e4 93 be 9a f8 b1 3b
       0.054740816 -0.18548131 -0.28885135 0.005431247
0000f0 b2 ce 4e 3d 85 49 0b 3d c0 88 a4 3d 5e e8 68 3d
       0.05049009 0.03400566 0.080338955 0.056862228
000100 b0 d5 cd 3d 74 1a 08 be c5 8b cd 3d 7e 99 01 be
       0.10050523 -0.13291341 0.100364245 -0.12656209
000110 51 f9 25 3e 1f 52 5e be 0d ff 9f bd 87 83 a7 bd
       0.16208388 -0.21711014 -0.07812319 -0.08179384
000120 8e a7 6b bd fc a8 bf 3d 81 ae 3b be 51 af 03 be
       -0.05753284 0.09358403 -0.18328287 -0.12859847
000130 50 54 58 3d 2f 84 87 be 7a e4 43 be 21 50 32 be
       0.05281478 -0.26468036 -0.19130126 -0.17413379
000140 b8 0f c9 bc 2e 64 34 be b8 a0 78 bd e4 ed 11 be
       -0.024543628 -0.1761634 -0.06070015 -0.14250904
000150 43 89 1f be 7b 03 19 3d 98 dd 5e 3d 9c c3 57 be
       -0.15579705 0.037356835 0.054410547 -0.21070713
000160 5d f6 91 3d 6a b6 82 bd 11 c4 35 bc 11 8c a3 bd
       0.07127068 -0.06382449 -0.011094109 -0.079857
000170 02 bd 84 bd f0 40 0b be 18 d1 3c bf 14 30 1c be
       -0.06481363 -0.1359899 -0.7375655 -0.15252715
000180 7c fc 47 be f7 82 46 be 1e 3b 98 be 01 80 0a 3e
       -0.19529909 -0.19385897 -0.29732603 0.13525392
000190 2e 00 8a be 20 bd 01 3e 3e ca 3f be 31 52 c1 3d
       -0.26953262 0.12669802 -0.18729493 0.09439505
0001a0 90 7a 42 3d cd 8d 47 be 62 d9 b2 3d a3 82 08 3e
       0.047480166 -0.19487686 0.08732869 0.13331084
0001b0 b4 39 e6 3c 76 9e d0 bd 78 66 0d bd b3 45 2d 3d
       0.028103687 -0.10186474 -0.03452155 0.0423028
0001c0 83 19 63 bc 25 40 ce be 26 04 e4 3d 53 60 39 be
       -0.013861063 -0.40283313 0.11133604 -0.18103151
0001d0 5a 96 47 be 96 7b c4 3c 40 ca b6 be 11 f9 a5 be
       -0.19490948 0.023984712 -0.3570118 -0.32416585
0001e0 11 85 10 3d 63 60 4a be f2 a8 53 be 2f ee 7b bd
       0.035283152 -0.19763331 -0.20669916 -0.061506446
0001f0 9e ad e8 3d 67 2a 49 be 6e f0 e6 3d 29 ca e4 bd
       0.1136124 -0.19645081 0.11276327 -0.111713715
000200 cc fa ca 3d c2 c3 57 bd 2c e1 5b be 92 16 72 bd
       0.09911117 -0.052676924 -0.21472615 -0.059103556
000210 6e 63 cb 3d 48 63 63 be 4e 11 2d 3c 28 6d fa bc
       0.09931074 -0.22205842 0.010563208 -0.030569628
000220 00 65 81 bb 8e fd c5 bc 4b e0 20 be 20 4b bf 3d
       -0.0039488077 -0.024168756 -0.15710561 0.09340501
000230 4a 13 35 be 22 11 ab 3d 8c 8c f3 3c 32 e4 88 3d
       -0.1768314 0.08352877 0.029730104 0.0668415
000240 41 3d 8c be 8d 10 bf 3d c4 5e ce bd a1 ec 7b bd
       -0.27390483 0.09329329 -0.10076669 -0.061504964
000250 49 bf bf 3d 38 91 9d bd 70 5e 9c bd 19 d4 51 3b
       0.093626566 -0.07693714 -0.076352 0.003201729
000260 42 47 6a be c2 0b 2f be 5a ec e8 3d fa 78 c0 3a
       -0.22878745 -0.17094329 0.113732055 0.0014684491
000270 6b 1a 44 bd 85 f0 c9 bd 1f d3 e9 bd fa 1f 93 3d
       -0.047876757 -0.098603286 -0.11417221 0.071838334
000280 4c fd 35 bd d6 3b 6b 3c 13 d4 20 be 86 47 8b bc
       -0.044431016 0.014357528 -0.157059 -0.017001878
000290 a4 b7 23 be 83 c9 c5 3d c1 2b 8e bc ea a5 bf 3d
       -0.15988022 0.09657576 -0.017354848 0.093578175
0002a0 2b 74 c2 3d 43 9a 84 3d 14 a3 44 bd a3 ec 4f 3d
       0.094948135 0.064747356 -0.048007086 0.050762784
0002b0 d2 d6 8a be eb c3 e0 3d e8 05 97 bd 0f 59 d7 bd
       -0.2711702 0.109748684 -0.073741734 -0.105150335
0002c0 26 03 55 bd 43 28 65 3d f8 5e 56 bd 18 a0 bc 3d
       -0.052004956 0.0559466 -0.052336663 0.09210223
0002d0 e2 b4 82 bd da b3 3d be 18 db 8b be f1 f9 4f 3d
       -0.06382157 -0.18525639 -0.27315593 0.050775472
0002e0 f6 4c 5b 3c cd a3 45 3d 6b 72 ea be 7d f6 7a bd
       0.013385048 0.048251916 -0.4579042 -0.061270226
0002f0 c6 d9 a9 3d 1c 8f c9 3d fe 3c 36 bd 0d 0f 2a 3c
       0.0829349 0.09841749 -0.04449176 0.010379565
000300 4d 35 ec bd 35 fe 14 3d 2f fa 97 bd ac ba 8a 3d
       -0.11533604 0.036375243 -0.074207656 0.06773886
000310 23 41 0f bd 43 22 60 bd 70 d1 3f be 1c b9 6d 3d
       -0.03497423 -0.054720175 -0.18732238 0.058037862
000320 8c 2d 95 3d 23 2c 71 3d d5 20 9d be ca e5 ad 3d
       0.07284078 0.058879983 -0.3068911 0.084910944
000330 a8 ea 7d 3d ce 8f 84 3d 47 dd 63 be 52 cc 0f be
       0.061991364 0.06472741 -0.2225238 -0.14042786
000340 0a 9c 3f 3d b0 48 cd bd de 8e 8d be f4 d1 37 bd
       0.04677967 -0.1002363 -0.27648062 -0.04487796
000350 90 7b 52 bd 25 0f bf 3d a1 c4 86 3d c5 ba 33 3c
       -0.05138737 0.093290605 0.06580473 0.010969822
000360 6e 4c 2a bd 1f d4 1f 3d ac 44 d5 3d 43 66 12 bc
       -0.041576795 0.039020654 0.10413489 -0.008935514
000370 a6 b9 fd bd 42 ef 8a bd ce 7d 4a be 1c c1 e1 be
       -0.12388925 -0.06783916 -0.19774553 -0.44092643
000380 f4 75 f9 bc 52 dc d3 bd 11 35 c5 bc 4b 5f 9f 3d
       -0.030451752 -0.10344757 -0.024073156 0.077818476
000390 05 45 fb be 16 e0 95 3d 70 e0 6d 3d 5b 50 ea 3d
       -0.49076095 0.073181316 0.05807537 0.11441108
0003a0 be 02 7d bd 1a db 1e be 1a 74 f1 bd 6a 09 9a 3d
       -0.061770193 -0.15513268 -0.11789723 0.07521327
0003b0 28 75 c2 bd 53 04 94 3d bc 60 87 3d 44 26 69 3d
       -0.09495002 0.07227387 0.066102475 0.05692126
0003c0 b8 c4 8d be 8e c9 04 bd fe 4a 90 3d ac 6a c8 3c
       -0.27689147 -0.03241878 0.070455536 0.024464928
0003d0 dc 54 0a be 7b cc 17 3c ad 57 89 be 8d 59 5f 3c
       -0.13508934 0.009265061 -0.26824704 0.01363219
0003e0 c7 0e d2 3d ed 82 c1 be e7 db e5 bd 7e d9 1a 3d
       0.10256725 -0.377952 -0.11223584 0.037805073
0003f0 be d1 c5 3d 67 7d 27 be c1 5e bb 3d 04 bd a5 bd
       0.09659146 -0.16356431 0.09148932 -0.080926925

9.bias f4 [10]
000000 73 af 7a bd 2b b8 8c be 1a 48 12 3e c5 1d d3 3d
       -0.061202478 -0.2748426 0.14285317 0.103084125
000010 a4 85 36 3d 89 47 1d be dd 2b 07 3e a0 ce b4 3c
       0.044561043 -0.1535932 0.13200326 0.022071183
000020 29 da 4a 3e d2 d8 26 bd
       0.19809784 -0.04073412
